Project/video_indexing/cnn.pth (torch, 23816 bytes, 18 tensors)

compress.0.weight f4 [8, 3, 3, 3]
0	0x3e169329	0.14704575
1	0x3c21e989	0.009882339
2	0x3da2ee14	0.07955566
3	0x3e67ee85	0.22649582
4	0x3e4c0c0d	0.19926472
5	0xbd9ead20	-0.07747865
6	0x3ccb8190	0.024842054
7	0xbdf4d226	-0.11954145
8	0xbd79b910	-0.060967505
9	0x3d368ce1	0.044567946
10	0x3e35b1ac	0.17743558
11	0xbc809442	-0.015695695
12	0xbdb91c01	-0.090385444
13	0xbddfa881	-0.109208114
14	0x3e2719ea	0.16318479
15	0x3da7d238	0.08194393
16	0xbd84a957	-0.064776115
17	0xbcd2677b	-0.025684109
18	0xbdfdc58b	-0.12391194
19	0x3e5819bd	0.21103568
20	0x3e3ca0a8	0.1842066
21	0x3ddf5314	0.10904518
22	0x3e162ee6	0.14666328
23	0x3c640350	0.013916805
24	0x3e121d77	0.14269052
25	0xbcdfc69b	-0.027316382
26	0x3cf5b5f4	0.029993989
27	0xbd568961	-0.05237711
28	0x3dff376a	0.12461741
29	0xbd98c9c2	-0.07460357
30	0x3d1e7bfb	0.038692456
31	0x3e524c2d	0.20536871
32	0xbd0bbb07	-0.03411391
33	0x3e5308e3	0.20608859
34	0xbd71c65c	-0.05902706
35	0x3d86b0c5	0.06576685
36	0xbd90748d	-0.0705348
37	0x3ded58fa	0.115892366
38	0x3e0324dd	0.12807031
39	0xbdd4459f	-0.10364842
40	0x3e7398d4	0.23788768
41	0xbde76f8d	-0.113005735
42	0x3dc64508	0.096811354
43	0xbd38d581	-0.04512549
44	0x3e2993e2	0.16560319
45	0x3e0390a3	0.12848143
46	0x3e75899d	0.23978277
47	0x3e4dfadb	0.20115225
48	0x3d9ea650	0.07746565
49	0xbd9c41af	-0.07629716
50	0x3de623b4	0.112372786
51	0x3d9494f2	0.072549716
52	0x3cb99c48	0.022657529
53	0x3e4eeb27	0.20206891
54	0x3e50ec00	0.20402527
55	0xbde8d1d6	-0.11368148
56	0x3caf5b7b	0.021405926
57	0x3d8a209f	0.06744503
58	0x3d807726	0.06272726
59	0x3d347a52	0.044061966
60	0x3db43b66	0.08800392
61	0x3da018e8	0.078172505
62	0x3e327b21	0.17429782
63	0xbdabbc14	-0.083854824
64	0xbc974003	-0.01846314
65	0x3e7ae974	0.24503118
66	0x3d866b7e	0.06563471
67	0x3ddc81bc	0.10766932
68	0x3e5a3cc8	0.21312249
69	0x3e29c20c	0.1657793
70	0x3e48cace	0.19608614
71	0xbd9ba9ee	-0.07600771
72	0xbe04d237	-0.12970816
73	0x3dde5d14	0.10857597
74	0xbcfb617b	-0.03068613
75	0xbdafe2a2	-0.08588149
76	0x3ddea9fa	0.10872264
77	0xbd6736e1	-0.05644882
78	0x3d0205c3	0.031743776
79	0x3bb240fc	0.0054398756
80	0x3dae3325	0.08505849
81	0x3e258d78	0.16167247
82	0x3ea59239	0.32338122
83	0x3e344e41	0.17607976
84	0x3e621e5d	0.22081895
85	0x3e3463af	0.17616151
86	0x3e3048fa	0.17215338
87	0x3e3656f0	0.17806602
88	0xbd4d2081	-0.050079826
89	0x3e1aed56	0.15129599
90	0x3df92cfb	0.121667825
91	0xbc693768	-0.014234401
92	0x3e116278	0.14197719
93	0x3e4f4405	0.20240791
94	0x3c407375	0.011746277
95	0xbc97121c	-0.018441252
96	0x3c7af67a	0.015317554
97	0x3bb98e3d	0.005662708
98	0x3d8cd4c7	0.068765216
99	0xbd76b2a0	-0.060228944
100	0xbe19a760	-0.15005255
101	0xbe062d89	-0.13103308
102	0xbdf78b3c	-0.12087104
103	0x3b7f0d56	0.003891786
104	0xbe2f7104	-0.17132956
105	0x3ddc5d97	0.10760038
106	0x3d7f27cb	0.06229381
107	0xbbefa89b	-0.0073138005
108	0x3e54b317	0.20771442
109	0x3e5b063d	0.21389098
110	0xbdce7ed6	-0.10082786
111	0x3d432410	0.047641814
112	0x3e0e77e6	0.13912925
113	0x3dc8087f	0.097672455
114	0x3df7fa4d	0.12108288
115	0x3e28289d	0.16421743
116	0xbe0b960c	-0.13631457
117	0xbdcfc451	-0.10144866
118	0x3ca52f0e	0.020164039
119	0xbdbd2260	-0.09235072
120	0x3e6e703a	0.23284999
121	0xbc1d0f13	-0.0095861135
122	0x3e4b75b8	0.19869125
123	0x3e6db281	0.23212625
124	0x3e0d0cd7	0.1377443
125	0x3e5ecc9f	0.21757744
126	0xbe0145b1	-0.12624241
127	0xbe065686	-0.13118944
128	0xbcb8229d	-0.022477442
129	0x3e4ba513	0.1988719
130	0x3c4365aa	0.011926094
131	0x3df490fb	0.11941715
132	0xbd3b36bd	-0.0457065
133	0x3cebb749	0.02877392
134	0x3c87b6f2	0.016566727
135	0x3df916f7	0.12162583
136	0xbdb18120	-0.08667207
137	0x3d7d60f1	0.06186003
138	0xbce2bd44	-0.02767814
139	0x3d33c5ba	0.04388974
140	0x3e48902d	0.19586249
141	0x3e62af00	0.2213707
142	0xbca5f756	-0.02025954
143	0x3e172134	0.1475876
144	0xbda2a7da	-0.079421714
145	0x3c83bbc8	0.016080752
146	0xbd83c791	-0.06434549
147	0x3e6bb58b	0.23018472
148	0x3e6f2cca	0.2335693
149	0x3e0339b8	0.12814987
150	0x3e4b7a1c	0.198708
151	0x3e5a2655	0.21303685
152	0xbd41def0	-0.04733175
153	0xbc19880c	-0.009370815
154	0x3d00949b	0.03139172
155	0x3d977026	0.073944375
156	0x3e644cc6	0.22294912
157	0x3e0be91e	0.13663146
158	0xbc0c8323	-0.008576187
159	0xbdc87cea	-0.097894505
160	0x3e0a0561	0.13478614
161	0x3d76db57	0.060267773
162	0x3ddcc518	0.1077978
163	0x3e539428	0.20661986
164	0xbba6e00c	-0.0050926264
165	0x3e003038	0.12518394
166	0x3e0094dd	0.12556787
167	0xbe425397	-0.189772
168	0xbe16fd62	-0.14745095
169	0xbe444e3e	-0.19170472
170	0xbd9731c4	-0.07382539
171	0xbd418c3a	-0.04725287
172	0x3e05e11a	0.1307415
173	0x3dc52219	0.09625644
174	0x3e447c94	0.19188148
175	0x3d0531ea	0.032518305
176	0xbe24b894	-0.16086036
177	0xbe0148f3	-0.12625484
178	0xbbe90de2	-0.0071122507
179	0xbc7859e4	-0.01515815
180	0x3da5ee6f	0.08102118
181	0xbdf02aed	-0.117269374
182	0xbddcb8d8	-0.10777444
183	0x3dcd8696	0.10035436
184	0x3e836708	0.25664544
185	0xbdbb896f	-0.09157073
186	0xbcc44c9c	-0.023962311
187	0x3e3f7213	0.1869586
188	0xbe4eceab	-0.20196025
189	0x3da02c95	0.07821003
190	0xbd4ea501	-0.05045033
191	0x3e660f43	0.2246676
192	0x3c3d5804	0.011556629
193	0x3dfa02b1	0.122075446
194	0x3e058504	0.13039023
195	0xbd397659	-0.04527888
196	0xbe11dc05	-0.14244087
197	0x3e33a878	0.17544734
198	0x3e011805	0.12606819
199	0x3c2a2af1	0.010386215
200	0xbdfaa1b7	-0.12237876
201	0xbde178ba	-0.11009355
202	0x3d03f269	0.032213602
203	0x3da98b69	0.082785435
204	0x3d89f62a	0.06736405
205	0x3cf4c231	0.029877754
206	0xbd6634e4	-0.056202784
207	0x3e3acdc9	0.18242563
208	0x3da710b9	0.081574865
209	0x3da6cd11	0.08144582
210	0xbd952076	-0.07281582
211	0x3e428dcc	0.18999404
212	0x3e0c26fa	0.13686743
213	0x3dfee35a	0.124457076
214	0xbe1be93e	-0.15225694
215	0x3e1e9696	0.15487131

compress.0.bias f4 [8]
0	0x3e060ed6	0.13091597
1	0xbd9b5be4	-0.07585886
2	0xbc5ab7f5	-0.013349523
3	0xbcafa74b	-0.021442076
4	0x3d9bc250	0.076054215
5	0x3e21fd58	0.15819299
6	0x3d40adc2	0.04704071
7	0x3d9fa201	0.07794572

compress.2.weight f4 [8, 8, 3, 3]
0	0x3e06c5f6	0.13161454
1	0x3d980e8c	0.074246496
2	0xbd655873	-0.055992555
3	0x3be40cd0	0.006959535
4	0x3da55459	0.08072729
5	0xbd6d1140	-0.05787778
6	0xbc976d09	-0.01848461
7	0xbda4f3cb	-0.08054312
8	0x3d7c64c5	0.06161954
9	0xbc9f7030	-0.019462675
10	0x3d69c70d	0.057074595
11	0xbd63d8c6	-0.055626653
12	0x3d96496e	0.07338224
13	0xbcbc0896	-0.022953313
14	0xbcc9953b	-0.024607291
15	0xbd9a2117	-0.07525843
16	0xbd6fc27c	-0.058535084
17	0xbac1c315	-0.001478287
18	0xbd5b04f3	-0.053471517
19	0x3d16c81c	0.036811933
20	0xbd141296	-0.036150537
21	0x3e1d6a76	0.15372643
22	0xbd30e08b	-0.04318289
23	0x3dfc8665	0.12330321
24	0x3e056063	0.1302505
25	0xbd5b0c52	-0.053478546
26	0xbbdf720b	-0.006819015
27	0xbd42fb24	-0.047602788
28	0x3df17fd5	0.1179196
29	0x3e34ac68	0.17643893
30	0xbe0af701	-0.13570787
31	0xbcd97d65	-0.02654905
32	0x3e37f5d6	0.17964873
33	0xbc87e9a4	-0.0165909
34	0xbd950883	-0.07277014
35	0x3e03e044	0.1287852
36	0xbca3ddd8	-0.020003244
37	0x3dd5b403	0.10434725
38	0x3e0a0503	0.13478474
39	0xbd6148ee	-0.05500119
40	0x3dcf1138	0.10110706
41	0xbd3a4703	-0.04547788
42	0xbc84c60b	-0.016207715
43	0x3dfd6ade	0.12373899
44	0xbd467a58	-0.04845652
45	0x3db1880a	0.086685255
46	0x3dc7e9b9	0.09761376
47	0xbd4e6a29	-0.05039421
48	0x3d847ba4	0.06468895
49	0x3de7465f	0.11292719
50	0xbd0eb12a	-0.034836926
51	0x3dc4dd7c	0.09612557
52	0x3d77f200	0.060533524
53	0xbd150f9f	-0.03639185
54	0x3e53e98b	0.20694558
55	0x3e879954	0.26484168
56	0x3ea58d18	0.32334208
57	0x3e2d0bac	0.16898984
58	0x3d453afe	0.048151962
59	0x3e34bca7	0.1765009
60	0x3d561a3b	0.05227111
61	0x3eb20063	0.3476592
62	0x3e861cc2	0.26193815
63	0x3d35d34d	0.044390965
64	0xbd4c53a6	-0.04988446
65	0xbc78aacf	-0.015177443
66	0x3e00cea1	0.12578823
67	0x3e0ccf7b	0.13751023
68	0xbd1126f6	-0.035437547
69	0xbd9548ca	-0.07289274
70	0x3d86d5b7	0.065837316
71	0x3de70f6f	0.112822406
72	0x3dab564c	0.08366069
73	0x3c1d19b6	0.0095886495
74	0x3cf2e56c	0.029650412
75	0xbb84b5df	-0.004050001
76	0x3e1443df	0.14479016
77	0x3e1f5592	0.15559986
78	0x3e242971	0.16031434
79	0x3dc79c64	0.09746626
80	0xbd799bc7	-0.060939576
81	0x3e08e23b	0.1336755
82	0x3e0f5a7c	0.13999361
83	0x3c62ebb0	0.013850138
84	0xbcc15af4	-0.02360294
85	0xbd0c478d	-0.034247924
86	0x3d049b5d	0.03237473
87	0xbc04bd19	-0.008101725
88	0x3d2456fe	0.040122025
89	0x3db38746	0.08766036
90	0x3d04e794	0.032447413
91	0x3d9575ee	0.07297884
92	0x3d986468	0.07441026
93	0x3de3e719	0.11128063
94	0x3e04bc2d	0.12962408
95	0x3c6856c5	0.014180844
96	0xbd8f9fef	-0.07012927
97	0x3d47b8f1	0.04876036
98	0x3dd2e4c5	0.102975406
99	0xbe0947ae	-0.1340625
100	0xbe0b4252	-0.13599518
101	0xbc6c552a	-0.014424602
102	0xbd99a2c3	-0.075017475
103	0x3ddae2dc	0.10687801
104	0xbd9159e0	-0.070972204
105	0xbe1f276c	-0.15542382
106	0xbd9827fa	-0.074295
107	0x3da52c8c	0.08065137
108	0x3c2fd6bc	0.010732349
109	0xbd311bd5	-0.043239433
110	0x3cdfb4c8	0.027307883
111	0x3be58d6e	0.007005385
112	0x3dce01d6	0.10058944
113	0x3dc90d7d	0.09817026
114	0x3e0b505d	0.13604875
115	0x3d7efa33	0.062250327
116	0xbd18ae1b	-0.037275415
117	0x3dafa90f	0.08577167
118	0x3e1a0db9	0.15044297
119	0x3e16f3ae	0.14741394
120	0x3dea357a	0.11435981
121	0xbd55fc73	-0.052242707
122	0xbc5fba89	-0.013655313
123	0x3e13f962	0.144506
124	0x3e016872	0.12637499
125	0x3d6691c8	0.05629137
126	0x3e2b9255	0.1675504
127	0x3eaeaf61	0.34118178
128	0x3ec490df	0.38391778
129	0x3d772b15	0.06034382
130	0x3e92d482	0.28677756
131	0x3ea28bf2	0.31747395
132	0x3e620a64	0.22074276
133	0x3e3542ad	0.17701216
134	0x3e686f3a	0.2269868
135	0x3e12835e	0.14307925
136	0xbc305ba7	-0.010764039
137	0x3c904e6d	0.017615521
138	0x3da3085d	0.079605795
139	0xbd3c3b86	-0.045955203
140	0xbc79a854	-0.015237886
141	0x3da993b3	0.082801245
142	0xbd9a34d0	-0.075296044
143	0xbd91da5b	-0.07121726
144	0xbd00ea38	-0.03147337
145	0x3e1806e5	0.1484638
146	0x3d9f93e6	0.07791881
147	0x3de7ab63	0.11311986
148	0x3c5baabc	0.0134074055
149	0x3dc399af	0.09550797
150	0x3da19efd	0.07891653
151	0x3e15ad3f	0.1461687
152	0x3e06a3d8	0.13148439
153	0xbd70b4b0	-0.058766067
154	0x3db845d8	0.08997697
155	0x3e1f1007	0.15533458
156	0xbc0d9bc1	-0.008643092
157	0x3e375281	0.17902566
158	0xbd51444d	-0.051090527
159	0x3dc45dbe	0.095881924
160	0x3db63b8a	0.08898075
161	0x3e081c60	0.13292074
162	0xbcec326f	-0.028832642
163	0x3d7441db	0.059633117
164	0x3d24cbbf	0.04023337
165	0x3d7e6ff7	0.062118497
166	0x3ba9fdaf	0.005187712
167	0xbd776caa	-0.060406365
168	0xbd857a29	-0.06517441
169	0xbb2fa395	-0.0026800383
170	0x3d4ca906	0.04996588
171	0xbe27c32d	-0.16383047
172	0xbe2720c6	-0.16321096
173	0xbe45282d	-0.19253607
174	0xbde2f53b	-0.1108193
175	0xbe5ed342	-0.21760276
176	0x3caa50a8	0.020790413
177	0xbe3db33c	-0.18525404
178	0xbe498bd5	-0.19682248
179	0xbcec27f2	-0.028827641
180	0xbc988b01	-0.01862097
181	0xbd2f48ea	-0.042794146
182	0x3d08d010	0.03340155
183	0x3dd44c6a	0.10366137
184	0x3d9d0ea4	0.07668808
185	0x3d25102c	0.040298626
186	0xbd92bca7	-0.07164889
187	0xbc7689e8	-0.015047528
188	0x3bd11bd0	0.0063814893
189	0xbd870b42	-0.06593944
190	0x3d186bb0	0.037212074
191	0x3b553984	0.0032535503
192	0xbca065cc	-0.01957979
193	0x3df07ecc	0.117429346
194	0x3cd76230	0.026291937
195	0xbda47fb0	-0.08032167
196	0x3dc69b4b	0.096975885
197	0x3ddc7b40	0.107656956
198	0x3e35b823	0.17746024
199	0x3eb5e66f	0.3552737
200	0x3e8e1acd	0.27754822
201	0x3c417db1	0.011809752
202	0x3e34090f	0.1758158
203	0x3e8a41bc	0.27003276
204	0x3ddee8fb	0.10884281
205	0x3e30f7e3	0.17282061
206	0x3ecf114a	0.40442878
207	0x3d0ebbb8	0.03484699
208	0xbcd03313	-0.02541498
209	0x3dafbded	0.08581147
210	0x3ce20df5	0.027594546
211	0x3e2e7fb4	0.17040902
212	0x3db8561e	0.090008005
213	0x3e27ab26	0.16373882
214	0x3dc87c5b	0.09789344
215	0x3da7b554	0.081888825
216	0xbe85f8cd	-0.26166382
217	0x3c2b9737	0.010473064
218	0x3dcaf392	0.099097386
219	0xbe6dcd26	-0.23222789
220	0xbd1378d7	-0.036003914
221	0x3d364775	0.04450174
222	0xbd167d44	-0.036740556
223	0xbdea833c	-0.11450812
224	0x3d2e3cac	0.04253833
225	0xbe9f1e9f	-0.3107805
226	0x3c561153	0.013065654
227	0xbc83c8e3	-0.016087001
228	0xbe4457fa	-0.19174185
229	0x3d9d995c	0.076952666
230	0xbc969c15	-0.018384973
231	0xbe6f88ef	-0.2339208
232	0x3df12982	0.11775495
233	0x3e4a8822	0.19778493
234	0xbeaf7f54	-0.3427683
235	0xbd308c60	-0.043102622
236	0xbbca65d3	-0.006176689
237	0xbe8a849f	-0.27054307
238	0x3e0b926e	0.13630077
239	0x3e80a5f7	0.2512662
240	0x3d185688	0.037191898
241	0x3e528bc1	0.20561124
242	0x3e92feee	0.2871012
243	0x3dee181a	0.11625691
244	0xbdec06c9	-0.11524732
245	0x3da410ae	0.08010994
246	0x3e395d6e	0.18102047
247	0xbe706623	-0.23476462
248	0x3e01446f	0.12623762
249	0x3e647332	0.22309569
250	0xbd92cf1a	-0.07168408
251	0x3e062f86	0.13104066
252	0xbe2fa4e7	-0.17152749
253	0xbe0088aa	-0.12552133
254	0x3e2ec385	0.17066772
255	0xbd364afb	-0.0445051

compress.2.bias f4 [8]
0	0x3d11a996	0.03556212
1	0x3c1b59c9	0.009481856
2	0xbc9f8e79	-0.019477116
3	0x3e7f36e5	0.24923284
4	0xbd8a1870	-0.06742942
5	0xbda77074	-0.081757456
6	0x3cc87357	0.02446906
7	0x3d843878	0.06456083

compress.4.weight f4 [8, 8, 3, 3]
0	0x3dc6b3cf	0.097022645
1	0xbb546e79	-0.003241448
2	0x3cd1f83a	0.025631059
3	0x3e072ba1	0.13200237
4	0xbd2b8cae	-0.04188221
5	0x3cfc863f	0.030825732
6	0x3c24746a	0.010037521
7	0x3de33199	0.110934444
8	0x3de6c0f2	0.1126727
9	0xbd4ef823	-0.05052961
10	0x3e057fb8	0.13037002
11	0x3de4f359	0.111792274
12	0x3c86ca4e	0.016453888
13	0x3d787c81	0.06066561
14	0xbd6c366b	-0.057669085
15	0xbd99bd30	-0.07506788
16	0x3d62b516	0.05534848
17	0x3d74c35d	0.059756625
18	0x3d45c6b4	0.0482852
19	0x3d40b130	0.04704398
20	0x3dc39f18	0.09551829
21	0x3d843578	0.06455511
22	0x3e1944d3	0.1496766
23	0xbdb45ab9	-0.088063665
24	0x3b526f8c	0.0032109944
25	0xbc8dd69b	-0.017314246
26	0x3dcd2ec6	0.10018687
27	0x3cba023b	0.022706142
28	0x3e028a56	0.12748083
29	0xbee7ad65	-0.45249477
30	0xbc9939e9	-0.018704372
31	0x3e5f14c6	0.21785268
32	0xbee45ed6	-0.44603604
33	0xbd500fab	-0.050796192
34	0x3d9f8fb4	0.07791081
35	0xbec7b2a5	-0.39003482
36	0x3b815448	0.0039468147
37	0xbcf485a6	-0.029848885
38	0x3defca09	0.11708457
39	0xbd1d2bd6	-0.038371883
40	0x3e17e76e	0.14834377
41	0xbd8c0df3	-0.06838598
42	0xbd4e2835	-0.050331313
43	0x3dd8f5f6	0.10593788
44	0xbcf58403	-0.029970175
45	0xbcbc7d70	-0.023009032
46	0x3de82f34	0.11337128
47	0xbc450237	-0.012024454
48	0xbd4b0118	-0.04956159
49	0xbdf01394	-0.11722484
50	0xbd9e5af3	-0.07732191
51	0x3d000672	0.031256147
52	0x3dcaa87e	0.098954186
53	0x3ca062e4	0.019578405
54	0x3d166a0c	0.036722228
55	0xbc611410	-0.013737693
56	0x3dcc7a86	0.09984307
57	0x3c2527ff	0.010080337
58	0x3d115a05	0.03548624
59	0x3ddcc56d	0.107798435
60	0xbe0e8fcb	-0.1392204
61	0xbdc617ab	-0.09672483
62	0xbcb26c55	-0.021780172
63	0x3daf2341	0.08551646
64	0x3db2839e	0.0871651
65	0x3e1a4fa2	0.1506944
66	0x3ded8887	0.11598306
67	0x3d744fc1	0.05964637
68	0xbd9b7402	-0.07590486
69	0xbc50a361	-0.012734265
70	0x3de2028a	0.110356405
71	0x3d8ff589	0.07029254
72	0x3d4bde24	0.049772397
73	0x3e1dce9f	0.15410851
74	0x3d1c39be	0.038141005
75	0xbd0708e5	-0.032967467
76	0x3df35772	0.11881913
77	0x3c43be8f	0.011947288
78	0x3d3ee8f6	0.046608888
79	0x3dbb1082	0.09134008
80	0xbd650a5d	-0.055918086
81	0x3e1cbd0f	0.15306495
82	0x3c621378	0.013798587
83	0xbc468806	-0.012117391
84	0x3d6ac352	0.05731518
85	0xbd7863cd	-0.060642052
86	0xbcc0091d	-0.023441846
87	0xbd3657dd	-0.044517387
88	0x3df67ff0	0.12036121
89	0xbd16992c	-0.03676717
90	0x3b0ff24d	0.002196449
91	0x3d7e52ac	0.06209056
92	0x3da422e9	0.08014471
93	0xbbcc8eec	-0.0062426236
94	0x3e06daba	0.13169375
95	0xbd51586c	-0.051109716
96	0x3e0125a9	0.12612022
97	0x3d967fce	0.073485956
98	0x3d0c5c8d	0.03426795
99	0x3d5c6074	0.053802922
100	0x3ed77089	0.42078045
101	0xbeb46039	-0.35229662
102	0x3e37b05a	0.17938367
103	0x3ebe95f2	0.37223774
104	0xbe9c3c15	-0.3051459
105	0x3e3047ce	0.17214891
106	0x3ea74aa5	0.32674137
107	0xbec7655a	-0.38944513
108	0xbcbbf8e6	-0.022945832
109	0x3e2955bf	0.16536616
110	0xbcaf7f48	-0.021422997
111	0x3e13b89e	0.14425895
112	0x3e150b03	0.14554982
113	0x3cab0053	0.020874178
114	0x3dc0e5db	0.094188415
115	0xbd0fe7bb	-0.035133105
116	0xbd815945	-0.06315855
117	0xbcb8a998	-0.022541806
118	0x3d7a0aae	0.06104534
119	0xbd96ea72	-0.07368936
120	0x3c85875e	0.0162999
121	0xbda9db75	-0.08293811
122	0x3d74a99e	0.059732072
123	0x3d26550f	0.040608462
124	0xbc3467f9	-0.011011117
125	0xbdd6cc92	-0.104882374
126	0xbd1a421c	-0.037660703
127	0xbd1ec01e	-0.038757436
128	0x3dd7be0b	0.10534295
129	0xbe16eb70	-0.1473825
130	0xbe0ef9f3	-0.13962536
131	0x3d354955	0.044259388
132	0xbd8387b3	-0.06422367
133	0xbc49c8e3	-0.0123159615
134	0x3cc168ad	0.023609484
135	0xbd8511fc	-0.06497571
136	0x3d24c565	0.040227313
137	0x3db74e7e	0.08950518
138	0x3d8fceea	0.070218876
139	0x3c4ea395	0.012612243
140	0x3e1e18f7	0.15439211
141	0x3e0aca40	0.13553715
142	0xbbb807de	-0.005616172
143	0x3be37b93	0.0069422214
144	0xbddafec5	-0.10693125
145	0x3c679b08	0.014136083
146	0xbc6d4f66	-0.014484262
147	0xbd373362	-0.044726737
148	0xbd297455	-0.04137071
149	0xbcff13c5	-0.031137357
150	0x3df5b25e	0.119969115
151	0x3cb0f2b7	0.02160011
152	0x3e38c145	0.18042476
153	0xbdb432fb	-0.08798786
154	0x3d814529	0.063120194
155	0x3d4e6466	0.050388716
156	0x3def0603	0.116710685
157	0xbd88b9dd	-0.066760756
158	0x3c623bb5	0.013808181
159	0x3e68a6eb	0.22719924
160	0x3d48106d	0.04884379
161	0x3d4458f2	0.047936387
162	0xbd15d559	-0.036580417
163	0x3db5a7ea	0.08869918
164	0xbbf7a1b4	-0.0075571183
165	0x3d7feaac	0.06247966
166	0x3d07fdec	0.033201143
167	0x3dccc6ef	0.09998881
168	0x3e601a83	0.21885113
169	0x3e4fda10	0.20298028
170	0x3d6f789c	0.05846463
171	0xbe65ba3a	-0.22434321
172	0xbe7073e9	-0.23481716
173	0x3e1d6242	0.15369514
174	0x3de9c945	0.11415342
175	0x3a297054	0.00064635766
176	0x3eabc7f4	0.3355099
177	0x3cc7cd53	0.024389898
178	0xbd8cf449	-0.06882531
179	0x3d8dc72b	0.06922754
180	0xbdb7208f	-0.08941757
181	0xbe17b302	-0.1481438
182	0xbe0eddbf	-0.13951777
183	0x3c49b246	0.01231057
184	0x3e170459	0.14747752
185	0xbc8e53b4	-0.017373897
186	0x3e3b1377	0.18269144
187	0x3d564225	0.052309174
188	0x3dec4f8e	0.11538611
189	0xbdcab255	-0.098972954
190	0xbd233364	-0.03984393
191	0xbda7aaec	-0.08186898
192	0x3d27c877	0.040962663
193	0x3de9e57c	0.11420724
194	0x3dd26b41	0.10274363
195	0x3dabc67c	0.08387467
196	0xbd5f6295	-0.054537375
197	0xbde1bdea	-0.11022551
198	0x3e1d6fa1	0.15374614
199	0x3ecc8eaa	0.39952594
200	0xbe656ad5	-0.22404034
201	0x3e919c7e	0.28439707
202	0x3ea71136	0.32630318
203	0xbcf48629	-0.029849129
204	0x3edb3415	0.42813173
205	0x3edea72e	0.43486923
206	0x3e876904	0.26447308
207	0xbe006a54	-0.12540561
208	0xbd99759d	-0.07493136
209	0x3c86b306	0.016442787
210	0x3d3aca9f	0.04560339
211	0xbbda07dd	-0.0066537694
212	0xbd2c9e4d	-0.042143155
213	0x3e274cc1	0.16337873
214	0x3c2e577c	0.010640975
215	0x3d500d42	0.050793894
216	0xbdc39660	-0.09550166
217	0x3b575ddf	0.0032862348
218	0xbd6b486a	-0.057442106
219	0x3d13617d	0.035981644
220	0xbde2308e	-0.11044417
221	0x3d812aff	0.06307029
222	0x3d64f65b	0.055899005
223	0x3cd32417	0.025774045
224	0x3ce98120	0.028503954
225	0x3bd48e7f	0.0064867134
226	0xbd17de70	-0.037077367
227	0xbcd7bae1	-0.026334228
228	0x3c7ff2a9	0.0156218195
229	0xbdeb321c	-0.11484167
230	0x3da667ee	0.08125292
231	0x3d2f022e	0.042726688
232	0xbd9bab1e	-0.076009974
233	0xbe06b189	-0.13153662
234	0x3d88f0ab	0.06686529
235	0xbd300435	-0.042972762
236	0x3dd9ce0a	0.10635002
237	0xbd6cb380	-0.057788372
238	0xbdd22fff	-0.10263061
239	0x3cefaf3e	0.029258367
240	0x3d78b7a8	0.060722023
241	0xbba6ddc7	-0.005092356
242	0xbcfed6b1	-0.031108232
243	0xbd715652	-0.058920212
244	0xbd9dd146	-0.07705931
245	0xbc9cee2f	-0.019156544
246	0x3d9e178a	0.077193335
247	0x3d2a748f	0.041615065
248	0x3cbf7fa9	0.023376303
249	0x3c2e2612	0.010629194
250	0xbde6ec31	-0.11275519
251	0x3d9fe4a7	0.07807284
252	0xbdf3e05f	-0.1190803
253	0xbdf19038	-0.11795086
254	0xbccc0034	-0.02490244
255	0x3cccfb1a	0.025022078

compress.4.bias f4 [8]
0	0x3d336375	0.04379602
1	0x3e25319b	0.16132204
2	0x3c5d6f4c	0.013515305
3	0xbdfe498e	-0.12416373
4	0x3d4beea5	0.049788136
5	0xbc1c4ff7	-0.0095405495
6	0xbc977296	-0.018487256
7	0x3e2c0d26	0.1680189

compress.6.weight f4 [8, 8, 3, 3]
0	0xbbf5f6dc	-0.0075062346
1	0x3e280dc4	0.16411501
2	0xbd86eaa3	-0.06587722
3	0xba3014e9	-0.0006716983
4	0x3da3148f	0.079629056
5	0x3d62ba2d	0.055353332
6	0xbdcd8671	-0.10035408
7	0x3e16e8d4	0.14737254
8	0x3dfd12b4	0.12357083
9	0x3ded5b05	0.11589626
10	0x3d889047	0.06668144
11	0x3e0693a7	0.13142262
12	0xbdae3c34	-0.085075766
13	0x3dc9a8bb	0.09846636
14	0xbca409cd	-0.020024205
15	0x3da3ecd6	0.08004157
16	0x3dd78eba	0.1052527
17	0x3d9de35c	0.07709381
18	0xbe8b72e5	-0.27236095
19	0xbddecebb	-0.108792745
20	0xbd94e8c9	-0.07270963
21	0xbbb68a02	-0.005570651
22	0xbd1799e2	-0.03701199
23	0x3b5ccbe8	0.0033690874
24	0xbdf43019	-0.119232364
25	0xbd4cd3af	-0.050006565
26	0xbe22d995	-0.15903313
27	0xbc5f1707	-0.01361633
28	0x3d06dc1e	0.032924764
29	0x3dabb09a	0.083832934
30	0x3dd4b59f	0.10386204
31	0xbc194501	-0.009354831
32	0x3b88c11e	0.004173412
33	0x3c959c72	0.018263076
34	0x3dbea0db	0.093080245
35	0x3df04f20	0.11733842
36	0x3e33fb59	0.1757635
37	0x3dd14050	0.10217345
38	0x3df61545	0.120157756
39	0x3c8ee52c	0.017443262
40	0xbd499e34	-0.04922314
41	0xbd431fae	-0.047637634
42	0x3dca5fca	0.098815516
43	0x3d3b3830	0.04570788
44	0x3d8e59ad	0.06950698
45	0x3d55aa8d	0.052164603
46	0x3d9a9fa8	0.07549983
47	0xbcb4f8eb	-0.02209135
48	0xbdc1c8ca	-0.094621256
49	0x3ddba579	0.10724921
50	0xbdb0cdac	-0.08632979
51	0x3d98e5b5	0.07465688
52	0x3d9f0294	0.077641636
53	0xbdc3101c	-0.09524557
54	0x3d6c0dbc	0.057630286
55	0xbd498371	-0.049197618
56	0x3dc8ea25	0.098102845
57	0xbd4caad5	-0.049967606
58	0x3bea0bd5	0.007142524
59	0x3dfd85bc	0.123790234
60	0xbdbe16a2	-0.092816606
61	0x3d033b59	0.03203902
62	0xbd32d874	-0.043663457
63	0x3d3b7446	0.045765184
64	0x3dbada50	0.09123671
65	0x3e1d747a	0.15376464
66	0x3d1e346e	0.03862422
67	0x3d2226cb	0.039587777
68	0x3d408ba2	0.047008164
69	0xbc930460	-0.017946422
70	0x3df78024	0.12084988
71	0xbd956bb9	-0.07295937
72	0x3d993e04	0.07482532
73	0xbc6fc61c	-0.014634635
74	0xbddb720b	-0.10715111
75	0x3e0db24a	0.13837543
76	0xbd71db30	-0.059046924
77	0x3bbddd29	0.0057941866
78	0xbcc2f0af	-0.023796408
79	0xbd98920d	-0.07449732
80	0xbcb1460e	-0.02163985
81	0x3cfca4c5	0.030840287
82	0xbd7e9d97	-0.062162008
83	0x3db42414	0.08795944
84	0x3b161626	0.0022901385
85	0xbc185a93	-0.009298938
86	0x3ca5b420	0.020227492
87	0x3dbcb862	0.09214856
88	0x3d9bde46	0.07610755
89	0xbd6d4cc0	-0.057934523
90	0xbdc232f0	-0.09482372
91	0xbe31b009	-0.17352308
92	0xbe273ad8	-0.16331041
93	0x3db3bbe0	0.08776069
94	0x3c3666d0	0.011132911
95	0x3c3578e4	0.011076186
96	0x3d80a478	0.0628137
97	0xbe584c67	-0.21122895
98	0x3ca3f86e	0.020015921
99	0xbda7fc70	-0.082024455
100	0x3c1550dd	0.009113518
101	0xbcb33df1	-0.021880122
102	0xbd821c13	-0.06353011
103	0x3d077c61	0.0330776
104	0x3c54c104	0.012985472
105	0xbdd302d3	-0.10303273
106	0xbde0ced3	-0.109769486
107	0xbdaf61d4	-0.08563581
108	0xbb09c590	-0.0021022297
109	0x3da2961f	0.079387896
110	0x3dcad54e	0.09903966
111	0x3cedc003	0.029022222
112	0x3c1d043f	0.009583532
113	0x3df4cab5	0.11952726
114	0x3c25dc62	0.010123344
115	0x3e0b063e	0.135766
116	0x3e1eea57	0.15519081
117	0x3def33e3	0.116798185
118	0x3dc64fd7	0.09683197
119	0xbdb3ed10	-0.087854505
120	0xbcffc15d	-0.031220132
121	0x3dc35319	0.09537334
122	0x3df55b19	0.11980266
123	0xbdcb644f	-0.09931242
124	0xbd2b174c	-0.041770265
125	0x3d8fa97b	0.07014748
126	0x3da643d7	0.08118408
127	0x3dde4b9b	0.10854264
128	0xbd1b54d3	-0.03792269
129	0x3c68e0b0	0.014213726
130	0xbcf1817e	-0.029480692
131	0xbdab7baa	-0.083731964
132	0x3db23193	0.08700862
133	0xbda72653	-0.08161607
134	0x3c356d0d	0.011073363
135	0x3dbb26bf	0.091382496
136	0x3c4072a7	0.011746085
137	0xbc96154c	-0.018320702
138	0x3dd39625	0.10331372
139	0xbd66d151	-0.056351963
140	0x3d708891	0.05872399
141	0x3d9b4a5a	0.07582541
142	0x3e06232f	0.13099359
143	0xbd4c3cfd	-0.04986285
144	0x3d879e13	0.06621947
145	0xbd32fb13	-0.043696474
146	0x3cc2fb42	0.02380145
147	0x3d1379f1	0.036004964
148	0xbd975280	-0.073887825
149	0x3e02da80	0.12778664
150	0x3c5ea09f	0.0135881
151	0xbd8a80b3	-0.06762829
152	0xbc810b6d	-0.015752519
153	0x3dad6503	0.08466532
154	0x3dcb7c8e	0.09935866
155	0x3da13d58	0.078730285
156	0xbd8c9a06	-0.06865315
157	0xbca9be6c	-0.020720683
158	0xbb230992	-0.002487753
159	0xbddf1f2d	-0.10894618
160	0xbcc250da	-0.023720194
161	0xbd677b03	-0.056513797
162	0xbe0b61c8	-0.1361152
163	0xbe892ce9	-0.26792076
164	0xbde8bff3	-0.113647364
165	0xbe3741c2	-0.17896178
166	0x3c0de51f	0.008660584
167	0x3d923cce	0.07140504
168	0xbe092552	-0.13393143
169	0xbe7d42a8	-0.24732459
170	0xbe278df1	-0.1636274
171	0xbd5d1032	-0.053970523
172	0xbcb59f8b	-0.022170803
173	0xbd999215	-0.07498566
174	0xbcb5ac64	-0.022176929
175	0xbdc16f06	-0.09445004
176	0x3d9cb501	0.07651711
177	0x3d8e5bbe	0.06951092
178	0xbd69e4ec	-0.057103083
179	0xbc550054	-0.0130005665
180	0xbd9b2fcb	-0.07577475
181	0x3d8c6e25	0.06856946
182	0xbbe6c0b5	-0.0070420154
183	0x3c24a6f9	0.010049575
184	0x3d5227b3	0.05130739
185	0xbd910bef	-0.07082354
186	0x3cae7ed1	0.021300705
187	0x3e254708	0.16140378
188	0xbd907c39	-0.070549436
189	0x3dc2c65d	0.09510491
190	0x3dc67d02	0.09691812
191	0x3d48211b	0.048859697
192	0xbd271c19	-0.04079828
193	0x3d0dcdfc	0.03462027
194	0xbdd0a559	-0.101877876
195	0xbdb029bf	-0.086017124
196	0x3cab9aa8	0.02094777
197	0x3d0e1d1f	0.03469574
198	0xbc21a81c	-0.009866741
199	0xba504226	-0.0007944427
200	0x3cb811f6	0.022469502
201	0x3dc3e6e4	0.09565523
202	0xbd6ee65f	-0.058325168
203	0xbd290361	-0.041262988
204	0x3ca10080	0.019653559
205	0x3cf9238e	0.030412462
206	0x3ca81886	0.020519506
207	0xbdbf43e7	-0.09339123
208	0xbcff9651	-0.031199606
209	0x3c8b6bd7	0.017019195
210	0x3c5cee59	0.013484561
211	0xbd117a70	-0.035517156
212	0x3d832041	0.06402636
213	0xbd8c900d	-0.06863413
214	0x3e1cf9f8	0.1532973
215	0x3dfc0635	0.123058714
216	0x3e012237	0.12610708
217	0x3e454b81	0.19267084
218	0x3e09fc72	0.13475206
219	0x3e04f1a1	0.12982799
220	0x3b2cb03c	0.002635016
221	0x3cd63797	0.026149554
222	0x3b94ddb5	0.004543031
223	0x3dff8161	0.12475849
224	0x3da54ea3	0.080716394
225	0x3e027c95	0.12742837
226	0x3e14ac43	0.14518838
227	0x3dbff93c	0.093737096
228	0xbd98f831	-0.07469214
229	0x3e09ced1	0.134578
230	0x3cdb655a	0.026781727
231	0x3e05c5b5	0.130637
232	0x3de9bd7b	0.11413094
233	0x3d86bcf5	0.065790094
234	0xbe14cb32	-0.14530638
235	0xbe15554a	-0.14583316
236	0x3d0c0436	0.034183703
237	0x3dea7d75	0.1144971
238	0x3d8c631b	0.0685484
239	0x3e6c0124	0.2304731
240	0xbd78e6ac	-0.06076686
241	0xbe220c50	-0.1582501
242	0xbd8f707b	-0.07003876
243	0x3c1f4a80	0.009722352
244	0xbde74a47	-0.11293464
245	0xbdbb424a	-0.09143503
246	0xbd9d211e	-0.07672332
247	0x3d0cbf95	0.034362394
248	0xbd321989	-0.043481383
249	0x3da272cf	0.07932054
250	0x3d159bfc	0.03652571
251	0xb8df5854	-0.00010649921
252	0xbc010e48	-0.00787694
253	0xbba9d894	-0.005183289
254	0x3d09ea16	0.033670507
255	0x3dcf8d8d	0.101344205

compress.6.bias f4 [8]
0	0x3dd840a6	0.10559206
1	0x3e1a2ea7	0.15056859
2	0x3e039f75	0.12853797
3	0x3e2c79cc	0.16843337
4	0x3d3a7794	0.045524195
5	0xbdeaa41c	-0.11457083
6	0xbd938ce3	-0.072046064
7	0xbd6c1484	-0.057636753

compress.8.weight f4 [8, 8, 3, 3]
0	0xbd7e4132	-0.062073894
1	0xbd76b29c	-0.06022893
2	0x3d881cd1	0.06646121
3	0xbdc11e5d	-0.094296195
4	0x3e1e19bf	0.15439509
5	0x3da2bb57	0.079458885
6	0xbc795dbe	-0.015220104
7	0x3da0a9e9	0.07844908
8	0x3dcbab0e	0.099447355
9	0xbdc1265b	-0.09431144
10	0xbd83ee47	-0.06441932
11	0x3e04a25e	0.12952563
12	0xbd41dd42	-0.04733015
13	0x3d92e0f0	0.0717181
14	0x3d946837	0.0724644
15	0xbbf267dd	-0.0073976354
16	0xbdae3020	-0.08505273
17	0x3d8e55ac	0.06949934
18	0x3ce20d0d	0.027594114
19	0xbc018f13	-0.007907647
20	0x3dfc75d2	0.1232716
21	0xbcb2a674	-0.021807887
22	0xbae42028	-0.0017404603
23	0xba1da05a	-0.0006012969
24	0x3d7b8831	0.06140918
25	0x3d8c5c8b	0.06853589
26	0xbd32b38f	-0.04362827
27	0x3da5d5ea	0.080974415
28	0x3e04b91c	0.12961239
29	0xbc7faf53	-0.015605765
30	0x3d6aa77a	0.057288624
31	0xbd3f44f0	-0.046696603
32	0x3e0757f0	0.13217139
33	0xbdea229b	-0.11432382
34	0xbda7a090	-0.08184922
35	0x3c6373ad	0.01388256
36	0xbe1882f2	-0.14893702
37	0x3da9acef	0.082849376
38	0x3daad657	0.08341663
39	0xbccc3073	-0.024925446
40	0x3d77f46a	0.060535826
41	0x3e174d16	0.147755
42	0x3bcc483d	0.0062341974
43	0x3d5b4a9e	0.053537957
44	0x3d9b0efb	0.07571217
45	0xbd5271f0	-0.05137819
46	0x3c8b03ba	0.01696955
47	0x3d073c30	0.033016384
48	0x3d990f81	0.0747366
49	0xbdb3741f	-0.08762383
50	0x3dea880d	0.11451731
51	0xbdb02812	-0.08601393
52	0x3d20570a	0.039145507
53	0x3d94ed12	0.0727178
54	0xbde20e87	-0.11037927
55	0x3d542635	0.05179425
56	0xbdb35eb2	-0.08758296
57	0xbdf5e455	-0.120064415
58	0x3dabab88	0.08382326
59	0x3d9d64df	0.07685255
60	0xbd8e4917	-0.069475345
61	0x3dd5eb2c	0.10445246
62	0x3d2e0ba1	0.04249156
63	0x3d427604	0.04747583
64	0xbc876b94	-0.01653079
65	0xbd872586	-0.06598954
66	0x3d7bc381	0.061465744
67	0x3d8b6d86	0.06807999
68	0x3e3040ba	0.17212191
69	0xbd0e8610	-0.03479582
70	0x3db1e3c7	0.08686023
71	0x3e0184c4	0.12648302
72	0x3bdd333e	0.0067504933
73	0xbd1e990a	-0.03872017
74	0xbda7105f	-0.081574194
75	0xbd99f090	-0.07516587
76	0x3dc5cf5d	0.09658692
77	0xbdf95ef1	-0.12176312
78	0xbc37e5d5	-0.01122423
79	0x3bcedfe8	0.006313313
80	0x3dd429ff	0.103595726
81	0xbd95e08a	-0.07318218
82	0xbe0da36a	-0.13831869
83	0xbc1ed6e4	-0.009694789
84	0xbda01915	-0.07817284
85	0xbc0f0f14	-0.008731622
86	0x3b8fe3d2	0.004391172
87	0xbdd10e51	-0.10207809
88	0xbddc3366	-0.10751991
89	0x3da6bfea	0.081420735
90	0x3cb87a70	0.02251932
91	0x3dbd325f	0.09238123
92	0xbdb557e3	-0.08854654
93	0x3d38ca07	0.045114543
94	0x3d6ff2d8	0.058581203
95	0x3d2e3f0a	0.042540587
96	0xbd6db6d9	-0.058035705
97	0x3e3266bc	0.17422003
98	0xbd735e16	-0.0594159
99	0x3d2448e5	0.04010858
100	0x3cfdc7a0	0.030978978
101	0xbe04afdd	-0.12957712
102	0x3d8996c0	0.067182064
103	0x3ddb1707	0.106977515
104	0x3d22950c	0.039692923
105	0xbd08f3a2	-0.03343547
106	0x3deb0b06	0.11476712
107	0x3e057c7d	0.1303577
108	0x3e32224d	0.17395897
109	0x3d91a2bb	0.071111165
110	0x3d8aa4fc	0.067697495
111	0x3d51aee3	0.051192176
112	0x3e82770b	0.25481448
113	0x3d601b1c	0.054713354
114	0xbd769f7f	-0.0602107
115	0xbd974d17	-0.073877506
116	0x3db21eb5	0.08697263
117	0xbdb6bf63	-0.08923223
118	0x3d36bb7a	0.044612385
119	0x3dbf5351	0.09342063
120	0x3d9304e5	0.07178668
121	0x3d036f5a	0.032088615
122	0x3dccc890	0.09999192
123	0x3d42a27e	0.047518246
124	0x3cb6d88f	0.02232006
125	0xbd198267	-0.037477877
126	0x3dc4c7a6	0.096083924
127	0x3ddad09b	0.106843196
128	0xbd3fcf4c	-0.046828553
129	0x3caed02f	0.021339504
130	0x3c7b7ce4	0.0153496
131	0xbd22c215	-0.039735872
132	0xbcdb7b1f	-0.026792107
133	0xbd97c747	-0.07411056
134	0xbd68ac99	-0.056805227
135	0xbdb2c6a3	-0.08729293
136	0xbd59cb07	-0.053172138
137	0xbd4d147b	-0.05006836
138	0x3e387132	0.1801193
139	0x3c1d19d4	0.009588677
140	0xbafa0ff8	-0.0019078245
141	0xbe2f5649	-0.17122759
142	0xbcb1b2bf	-0.021691678
143	0xbd6c8d1f	-0.05775177
144	0x3db19949	0.08671815
145	0x3d7361c2	0.0594194
146	0x3d3b24a3	0.045689236
147	0xb7c9dec0	-2.4064793e-05
148	0x3e16c617	0.14724003
149	0x3e0e8a0e	0.13919851
150	0x3d3de2d1	0.046358887
151	0x3e1e0cb2	0.1543453
152	0x3d5dba92	0.054133005
153	0x3dd18be2	0.10231759
154	0x3d075023	0.03303541
155	0x3de91774	0.113814265
156	0xbd65eb71	-0.056132738
157	0xbbd44f87	-0.006479207
158	0x3e1629fe	0.14664456
159	0xbd234f82	-0.039870746
160	0x3e252132	0.16125944
161	0x3d83f054	0.06442323
162	0x3de4b520	0.11167359
163	0x3e05ee23	0.13079123
164	0x3db417f9	0.08793635
165	0x3c8bc3aa	0.017061073
166	0x3cec4e71	0.028845998
167	0x3bd39620	0.0064571053
168	0x3d9f049e	0.077645525
169	0x3df59e5f	0.119930975
170	0x3d33ff38	0.043944567
171	0xbd87b68e	-0.066266164
172	0xbdcbc145	-0.099489726
173	0x3d942c7b	0.072350465
174	0x3db9bf0b	0.09069642
175	0x3dfe3031	0.124115355
176	0x3cae7b2e	0.021298971
177	0x3cdd049c	0.026979737
178	0x3dcb730a	0.09934051
179	0xbd2458eb	-0.04012386
180	0xbd3ea24b	-0.046541493
181	0xbdfa5c69	-0.12224657
182	0xbd98abbe	-0.07454632
183	0xbc3fee9e	-0.011714606
184	0x3c91ff1a	0.017821837
185	0x3c5a4712	0.013322609
186	0xbb52581c	-0.0032095974
187	0x3d3855c2	0.04500366
188	0x3d5b0697	0.05347308
189	0x3dc5dd9e	0.09661411
190	0xbcc9abc9	-0.024618046
191	0x3dd40f5d	0.10354493
192	0xbd49bb46	-0.049250863
193	0x3dd6a27b	0.104802094
194	0xbd36dda9	-0.044644985
195	0xbb95d880	-0.004572928
196	0x3d86b40d	0.06577311
197	0x3c184939	0.009294801
198	0x3d3ae2f7	0.045626607
199	0xbd81a7f8	-0.063308656
200	0x3d97eaf8	0.074178636
201	0x3d112732	0.03543777
202	0x3d1f11fe	0.038835518
203	0x3d5d91f0	0.054094255
204	0x3db86fbc	0.09005687
205	0xbd0b4efa	-0.034010865
206	0xbd925b11	-0.07146276
207	0xba5f2d53	-0.0008513529
208	0xbd6ffaec	-0.058588907
209	0x3e25d04a	0.16192737
210	0x3dbb5b08	0.09148222
211	0x3d156780	0.03647566
212	0xbcb7222c	-0.022355162
213	0x3db0f067	0.08639603
214	0xbc00c7f4	-0.007860173
215	0x3dd79a1a	0.105274394
216	0x3d196e61	0.03745878
217	0x3d83ee2a	0.064419106
218	0x3d1a5786	0.037681125
219	0x3af2e0a5	0.0018530084
220	0x3d1997f2	0.037498422
221	0xbdfd0c09	-0.12355811
222	0xbdeed333	-0.11661377
223	0x3ddf8104	0.1091328
224	0xbc05ee78	-0.008174531
225	0xbe2cd1bd	-0.16876884
226	0xbb46aa23	-0.0030313812
227	0x3dd6a367	0.10480385
228	0x3e2be249	0.1678554
229	0xbdb8b625	-0.09019116
230	0x3e268f24	0.16265541
231	0x3e745fc3	0.23864655
232	0xbeb65d11	-0.3561788
233	0x3e538f14	0.20660049
234	0x3d694edd	0.056959976
235	0xbdb1e0df	-0.08685469
236	0x3dbac997	0.091204815
237	0x3d1811fe	0.037126534
238	0x3be6bf4b	0.007041847
239	0x3ce18383	0.02752853
240	0x3c4be5bb	0.012444909
241	0xbe232389	-0.15931524
242	0xbce79fc8	-0.028274432
243	0xbe0c9964	-0.13730389
244	0xbd8c925d	-0.06863854
245	0xbe032e10	-0.1281054
246	0x3e11b3a3	0.14228682
247	0x3e18ded6	0.14928755
248	0x3d258cba	0.04041741
249	0x3ce52001	0.027969362
250	0xbdefd7d2	-0.11711086
251	0xbc5427cd	-0.012948942
252	0x3dd85e01	0.10564805
253	0x3ccf31c1	0.02529228
254	0xbd8a3c8f	-0.06749832
255	0x3e679672	0.22615984

compress.8.bias f4 [8]
0	0x3dfe3eec	0.12414345
1	0x3d52a1df	0.051423904
2	0x3d810d5e	0.06301378
3	0x3d092dd8	0.033490986
4	0x3df9ef40	0.122038364
5	0x3e369dae	0.17833588
6	0x3dcac138	0.09900135
7	0x3d588580	0.05286169

decompress.1.weight f4 [8, 8, 3, 3]
0	0xbd2cd512	-0.042195387
1	0x3dd7d346	0.10538344
2	0x3c8b27a6	0.01698668
3	0xbd221128	-0.039567143
4	0x3e000911	0.12503459
5	0x3db4d314	0.088293225
6	0xbd42026d	-0.047365595
7	0x3e35d2fd	0.17756267
8	0x3b1dfa77	0.0024105588
9	0xbdcd6be1	-0.10030342
10	0x3da70d20	0.081568
11	0x3d44a492	0.04800851
12	0xbda2b9d0	-0.07945597
13	0x3e855427	0.26040766
14	0xbcd22988	-0.02565457
15	0x3d7f10c5	0.062271852
16	0xbcb8fbe2	-0.022581045
17	0x3db56791	0.08857644
18	0xbc144b32	-0.009051131
19	0x3d62ba98	0.05535373
20	0xbc1ee06f	-0.009697064
21	0xbd6fbf76	-0.0585322
22	0x3e74ac73	0.23893909
23	0x3de47837	0.11155742
24	0xbd2e62f5	-0.04257484
25	0xbcec56c5	-0.028849969
26	0xbc806198	-0.015671536
27	0x3b14cbef	0.0022704562
28	0x3d06ab33	0.032878112
29	0x3ca72d90	0.020407468
30	0xbd434d97	-0.047681417
31	0x3cdfe810	0.027332336
32	0x3c054625	0.0081344
33	0x3ddb2dde	0.10702108
34	0x3a81d352	0.0009904897
35	0xbdd51305	-0.10404018
36	0xbdbb0520	-0.09131837
37	0x3e04b4be	0.12959573
38	0x3d532e00	0.05155754
39	0xbe07e99c	-0.13272709
40	0x3e82124b	0.2540458
41	0xbd879c05	-0.06621555
42	0x3d708b73	0.05872674
43	0xbd84c98a	-0.06483753
44	0xbdc6563c	-0.09684417
45	0xbcc4eacf	-0.024037747
46	0xbdfff13d	-0.124971844
47	0x3cafde2b	0.021468243
48	0xbd600478	-0.05469176
49	0x3ea5f063	0.32409963
50	0xbcd0bcd4	-0.025480665
51	0x3d2c1776	0.04201456
52	0xbcdacd7b	-0.026709309
53	0x3d34f319	0.04417715
54	0x3c7c4edd	0.015399662
55	0x3dc1ba16	0.09459321
56	0x3d192c4f	0.03739577
57	0xbdc8f2ba	-0.098119214
58	0x3e55b762	0.20870736
59	0x3d39551a	0.045247175
60	0xbd8f833e	-0.07007454
61	0xbdb37272	-0.08762063
62	0x3d1983f0	0.03747934
63	0x3b97a9d5	0.0046284
64	0x3c34870a	0.011018524
65	0x3cda3885	0.026638279
66	0xbd9a72b4	-0.07541409
67	0x3dbc1d2e	0.09185253
68	0xbd7b900b	-0.061416667
69	0x3caf629c	0.021409325
70	0x3e0e8485	0.1391774
71	0xbd19a542	-0.037511118
72	0x3debd0ce	0.11514436
73	0xbcb93c43	-0.022611743
74	0xba07c110	-0.000517861
75	0x3d8fa9be	0.07014798
76	0x3e507c2e	0.20359871
77	0x3d99c08f	0.07507431
78	0x3dca3675	0.09873668
79	0x3d8a345f	0.0674827
80	0xbd3f3024	-0.04667677
81	0x3d51f923	0.051262986
82	0x3d6dd88d	0.058067847
83	0xbd0e0f88	-0.03468278
84	0xbe18005a	-0.14843884
85	0x3e2af600	0.16695404
86	0x3d6349b9	0.05549023
87	0x3cd04377	0.025422795
88	0xbd05f423	-0.03270353
89	0x3da73247	0.081638865
90	0xbc434510	-0.011918321
91	0xbd705ffd	-0.05868529
92	0xbde4ca6a	-0.1117142
93	0x3c498c60	0.012301534
94	0xbdb56964	-0.08857992
95	0xbcbc6e58	-0.023001835
96	0x3d26bf2a	0.040709652
97	0xbd0da428	-0.03458038
98	0xbe2e619f	-0.17029427
99	0xbdbd43b7	-0.09241431
100	0xbe5f00f5	-0.21777709
101	0xbcf47489	-0.029840725
102	0xbb1675bb	-0.0022958356
103	0xbdd4b35a	-0.10385771
104	0xbe11569f	-0.141932
105	0xbd825be7	-0.06365185
106	0xbcb91a3b	-0.022595515
107	0xbb29e2c7	-0.0025922523
108	0xbd2fe969	-0.042947207
109	0xbd973fb7	-0.073851995
110	0x3d5e4e85	0.0542741
111	0x3da96a34	0.0827221
112	0x3e8b54b8	0.27213073
113	0x3d3e9503	0.046528827
114	0x3b6beec5	0.0036000472
115	0x3ddfa360	0.10919833
116	0xbcc1c434	-0.023653127
117	0xbdf324a1	-0.11872221
118	0x3bd102f2	0.006378525
119	0x3de2926b	0.11063083
120	0x3d2ebbca	0.04265956
121	0xbd58acee	-0.052899294
122	0xbcdf7c7c	-0.027281038
123	0x3d471d54	0.048611954
124	0xbd4acb77	-0.049510445
125	0x3d7bbda1	0.06146014
126	0xbac2ffaf	-0.0014877225
127	0xbe1644ff	-0.14674757
128	0x3b10fc3f	0.0022123007
129	0x3d63e211	0.055635516
130	0x3e872213	0.26393184
131	0xbd7bd87e	-0.06148576
132	0xbd13dfb4	-0.03610201
133	0x3d82b542	0.063822284
134	0xbd0d7819	-0.034538362
135	0xbc947e4e	-0.018126633
136	0x3d02467b	0.031805497
137	0xbd1eb772	-0.038749166
138	0x3e06546d	0.13118143
139	0xbe72ca2b	-0.23709933
140	0x3cc032d2	0.023461733
141	0xbc3cf263	-0.011532399
142	0x3d6097b6	0.054832183
143	0xbd97ea80	-0.07417774
144	0xbd442456	-0.047886215
145	0xbc90d8b7	-0.017681463
146	0x3daf02e4	0.08545473
147	0x3d040717	0.032233324
148	0x3dc293f8	0.09500879
149	0xbd2171b2	-0.03941507
150	0xbd3769fb	-0.044778805
151	0x3b63d27b	0.0034762907
152	0xbd8e700d	-0.06954966
153	0x3c43d37b	0.011952276
154	0xbd8abdf3	-0.06774511
155	0xbdb49ca7	-0.088189416
156	0x3d3bb0f6	0.04582306
157	0x3e309339	0.17243661
158	0xbd4c2054	-0.049835518
159	0xbdc247a8	-0.094863236
160	0x3d819080	0.06326389
161	0xbd9ca345	-0.07648329
162	0x3cfb21b5	0.030655721
163	0x3e0354a9	0.12825264
164	0xbce5c452	-0.028047714
165	0x3d879a87	0.066212706
166	0x3e4b0879	0.19827451
167	0x3da19601	0.07889939
168	0x3d207c95	0.03918131
169	0xbcbf4135	-0.023346523
170	0x3d523fa2	0.051330216
171	0x3dd70b22	0.1050017
172	0x3d866bea	0.06563552
173	0x3db3e8a1	0.08784605
174	0x3e1d726e	0.15375683
175	0x3dbb29ca	0.0913883
176	0x3da14ab6	0.07875578
177	0xbb8ffb7d	-0.0043939934
178	0xbbe09154	-0.006853262
179	0x39f0c578	0.00045923493
180	0xbdb9c464	-0.09070662
181	0x3dad0690	0.08448517
182	0x3abdef2e	0.0014490837
183	0x3d87b894	0.06627002
184	0x3cc48b2c	0.023992144
185	0xbd408629	-0.047002945
186	0xbcdb324f	-0.026757387
187	0xbd7e6f09	-0.06211761
188	0x3dc6d6e3	0.09708955
189	0xbcd623c5	-0.026140103
190	0x3a3e137e	0.00072508294
191	0x3a00febd	0.00049207715
192	0x3c3653c0	0.011128366
193	0xbe15cad0	-0.14628148
194	0x3d3acce3	0.04560555
195	0xbda8198d	-0.082079984
196	0xbddac8de	-0.106828436
197	0xbdfa07a6	-0.1220849
198	0x3c150f67	0.0090979105
199	0xbd26f376	-0.040759526
200	0x3d3dd327	0.04634395
201	0xbd8f8ebc	-0.07009646
202	0x3e54e40d	0.2079012
203	0x3e03bc99	0.12864913
204	0xbcdcaad8	-0.026936933
205	0x3d5e9e2d	0.054350067
206	0x3d97588c	0.07389936
207	0x3d2a29cb	0.041543763
208	0xbd81d09f	-0.063386194
209	0xbd370449	-0.04468182
210	0x3de0957c	0.10966012
211	0xbd02f38b	-0.031970542
212	0x3d91b72b	0.07115015
213	0xbb8abe6e	-0.004234127
214	0xbbe30c58	-0.0069289617
215	0x3c543108	0.012951143
216	0xbd87c404	-0.06629184
217	0xbe3f109e	-0.18658683
218	0xbdd850f5	-0.10562316
219	0x3de7529d	0.11295054
220	0xbe1f1636	-0.15535817
221	0xbd5f0958	-0.05445227
222	0xbc8bfd14	-0.01708845
223	0x3debdf8c	0.115172476
224	0x3dc711a6	0.09720163
225	0xbde55045	-0.11196951
226	0x3dd2deea	0.10296424
227	0x3e247d7c	0.16063493
228	0x3ae2a15e	0.0017290523
229	0x3b7a398f	0.003818128
230	0x3dff2d9b	0.124598704
231	0x3e3a8c52	0.1821759
232	0x3e22f36d	0.15913172
233	0xbd704230	-0.05865687
234	0xbdab6784	-0.083693534
235	0x3db9d47f	0.090737335
236	0xbb695b1a	-0.003560728
237	0x3de726a1	0.11286665
238	0x3ca03798	0.01955776
239	0xbcf25b90	-0.029584676
240	0xbd877fb5	-0.06616155
241	0x3d687dbd	0.05676054
242	0x3dd19b16	0.102346584
243	0xbe00a773	-0.12563877
244	0x3d7bb09c	0.061447725
245	0x3d1a84f9	0.03772447
246	0xbe456f26	-0.19280681
247	0x3c827d13	0.01592878
248	0x3dd685e2	0.10474755
249	0xbe0ecd61	-0.13945533
250	0x3e249322	0.16071752
251	0xbd097dcc	-0.033567235
252	0xbdda2b44	-0.106527835
253	0xbe533055	-0.20623906
254	0x3b96abc3	0.0045981123
255	0x3e3ec06d	0.18628092

decompress.1.bias f4 [8]
0	0x3c7d7b62	0.015471311
1	0x3e40c215	0.18824036
2	0x3dd8332f	0.105566375
3	0x3e2478e9	0.16061749
4	0x3e1bf42f	0.15229867
5	0x3e7b3b0f	0.24534248
6	0x3da0d48c	0.0785304
7	0x3e6fc8ca	0.23416439

decompress.3.weight f4 [8, 8, 3, 3]
0	0xbd77f2b6	-0.0605342
1	0x3d1514cc	0.036396787
2	0x3d3e3ea4	0.046446458
3	0x3dc03c6f	0.09386527
4	0xbdd9c54e	-0.10633336
5	0x3d33ec0e	0.04392629
6	0x3dbcb10e	0.09213458
7	0x3dbc7c43	0.092033885
8	0x3d37cc26	0.044872425
9	0xbdff1b69	-0.124564
10	0x3d0a59bb	0.03377698
11	0xbd8ab331	-0.06772459
12	0xbc85d5bf	-0.016337274
13	0x3defe42b	0.117134415
14	0x3d3e1110	0.04640299
15	0xbdf245d7	-0.11829727
16	0x3dd7d1c5	0.10538057
17	0x3d035d7d	0.03207158
18	0xbdb1d4c8	-0.08683163
19	0xbca22056	-0.01979081
20	0x3dc22c38	0.0948109
21	0xbe5373dd	-0.20649667
22	0x3d99c909	0.075090475
23	0xbb9c0aa8	-0.0047620125
24	0xbdf21491	-0.11820329
25	0x3dedeae8	0.116170704
26	0x3d5f9468	0.05458489
27	0xbdeb47a4	-0.11488274
28	0xbd999f8a	-0.07501133
29	0x3e3baa80	0.1832676
30	0x3debdc3b	0.11516615
31	0x3dcc5eed	0.09979043
32	0x3d95c412	0.07312788
33	0x3e4e786b	0.20163123
34	0x3dfeeef2	0.12447919
35	0x3dbf9dd5	0.09356276
36	0xbd5f67b0	-0.054542243
37	0xbd9495d3	-0.07255139
38	0xbdcad387	-0.09903627
39	0xba726ddc	-0.00092479377
40	0x3de98792	0.11402811
41	0x3d4125da	0.04715524
42	0xbd4c832c	-0.049929783
43	0x3e3092c4	0.17243487
44	0x3ca1dec6	0.019759547
45	0xbd9e3d44	-0.07726529
46	0xbd1403be	-0.03613638
47	0xbc4d99bc	-0.01254886
48	0x3d476626	0.0486814
49	0x3e172e4b	0.14763753
50	0x3dba4ee2	0.09097077
51	0x3d303806	0.043022178
52	0xbcf37c99	-0.029722499
53	0x3e1852ca	0.14875332
54	0xbe6db684	-0.23214155
55	0x3da24516	0.07923333
56	0xbe9da8ed	-0.30792943
57	0xbdf0af76	-0.117522165
58	0xbe0008d9	-0.12503375
59	0xbd8e6e49	-0.06954629
60	0xbd7fc997	-0.06244811
61	0xbd02fbf9	-0.03197858
62	0x3da6354c	0.08115634
63	0x3d2962b9	0.041353915
64	0xbe0e327f	-0.1388645
65	0xbd27e6fb	-0.040991765
66	0xbddaf65f	-0.10691523
67	0xbd9ecc6f	-0.07753836
68	0xbdef6d9b	-0.116908275
69	0xbd96bb56	-0.0735995
70	0xbc2d5493	-0.010579246
71	0xbe00e43a	-0.12587062
72	0xbd294acb	-0.041331094
73	0x3bc93553	0.00614039
74	0x3dd69134	0.10476914
75	0xbde74b0d	-0.11293612
76	0x3d7c2abb	0.06156419
77	0xbd3b0e99	-0.04566822
78	0x3d2c4319	0.042056177
79	0x3d3ee053	0.04660065
80	0xbcef2155	-0.029190699
81	0xbdbdff5a	-0.0927722
82	0x3d04677c	0.032325253
83	0xbcf15efd	-0.02946424
84	0xbde233b6	-0.11045019
85	0x3dbc284b	0.09187373
86	0xbd1f609e	-0.0389105
87	0x3db57544	0.08860257
88	0x3ce18524	0.027529307
89	0xbdae5769	-0.08512766
90	0x3da3112e	0.07962261
91	0xbdcbff09	-0.099607535
92	0xbdc1c0a2	-0.0946057
93	0x3cea574b	0.028606078
94	0xbdbd47bf	-0.092422
95	0xbdfda37f	-0.123847
96	0x3d6aa13a	0.057282664
97	0x3c875cac	0.016523682
98	0x3a8ab3be	0.0010582132
99	0x3d2a6aad	0.04160564
100	0x3e10e57d	0.14150043
101	0xbddc39b5	-0.10753194
102	0xbd5f3e95	-0.054503042
103	0x3e363746	0.17794523
104	0x3dbffe8d	0.093747236
105	0x3ccb2e74	0.024802424
106	0x3e35d6f0	0.17757773
107	0xbd3488e2	-0.044075854
108	0x3d02fd4f	0.031979855
109	0x3d1abafe	0.037775986
110	0xbbc52a4c	-0.006017005
111	0xbdf86056	-0.121277496
112	0x3dfc43dc	0.12317631
113	0xbbc795d2	-0.006090858
114	0xbd8119d6	-0.06303756
115	0x3df26538	0.11835712
116	0x3dab97f1	0.0837859
117	0x3c480f9d	0.012210754
118	0xbacabc92	-0.0015467575
119	0xbdc1b37d	-0.09458063
120	0x3cf4929e	0.029855069
121	0x3d3c630f	0.045992907
122	0x3d7585aa	0.059941925
123	0x3dbaa500	0.091135025
124	0xbd10f0fb	-0.035386067
125	0xbd2c1ac0	-0.0420177
126	0xbdc1c734	-0.09461823
127	0xbdb5c39e	-0.08875202
128	0xbd8ece19	-0.06972904
129	0x3b9198b6	0.0044432534
130	0xbd7ce5d0	-0.061742604
131	0xbdaea9b7	-0.08528464
132	0xbe486d1e	-0.19572875
133	0xbdd1b596	-0.10239713
134	0x3dc5893b	0.09645315
135	0x3b91137a	0.0044273706
136	0xbd304b7c	-0.043040738
137	0xbdfe72e6	-0.12424259
138	0xbdcf9d4f	-0.10137426
139	0x3d884a13	0.066547535
140	0xbdd7f52e	-0.10544811
141	0xbd03fbd5	-0.032222588
142	0x3ca46d76	0.020071726
143	0xbdd814e5	-0.1055086
144	0x3d351741	0.04421163
145	0x3d258681	0.040411476
146	0x3d1bb2e1	0.03801239
147	0xbc9507f5	-0.01819227
148	0xbdd5e239	-0.10443539
149	0x3dc4d131	0.096102126
150	0xbd0a7719	-0.033804987
151	0x3cf1bc76	0.02950881
152	0x3dd518d6	0.10405128
153	0xbde2fbc2	-0.11083175
154	0x3d9247f9	0.07142634
155	0xbc1dd612	-0.009633558
156	0x3c82b0fa	0.01595353
157	0xbd4b0a75	-0.04957052
158	0x3e1ba58f	0.15199874
159	0xbc825dc2	-0.015913848
160	0xbe04b32e	-0.12958977
161	0xbd691d72	-0.056912847
162	0x3db0f6f0	0.086408496
163	0xba0a3485	-0.0005272108
164	0xbd9853b5	-0.07437841
165	0xbcfdd988	-0.030987516
166	0xbd42c06c	-0.04754679
167	0xbd885006	-0.06655888
168	0xbdd2c761	-0.10291935
169	0x3d6c502b	0.05769364
170	0x3bc4d194	0.006006429
171	0x3d55d7cf	0.052207764
172	0x3de69bc9	0.112601824
173	0xbc000195	-0.007812877
174	0x3d4141e8	0.047181994
175	0x3dd11cdb	0.10210582
176	0x3d272ef1	0.04081625
177	0xbd3de446	-0.046360277
178	0xbcd46e8b	-0.025931617
179	0xbc8802d1	-0.016602905
180	0x3d859bf3	0.065238856
181	0xbc46a9f0	-0.012125477
182	0x3d883f5e	0.06652711
183	0x3e0a4c29	0.13505615
184	0x3e1c4177	0.15259348
185	0x3e2b71f9	0.16742696
186	0x3d1c0485	0.038090248
187	0x3d99eaff	0.07515525
188	0xbc85ca79	-0.016331898
189	0xbb80bcf1	-0.0039287736
190	0x3cb89a27	0.022534443
191	0x3dab4973	0.08363619
192	0xbd6cb8f0	-0.057793558
193	0xbe342272	-0.17591265
194	0x3da87fb9	0.08227486
195	0xbc78f585	-0.015195255
196	0x3d5c5e1c	0.053800687
197	0xbe079add	-0.1324267
198	0xbbeee410	-0.0072903708
199	0xbdb0cc78	-0.08632749
200	0x3e10e19d	0.14148565
201	0x3d8b0065	0.067871846
202	0xbd3eea6f	-0.046610292
203	0xbe0c0102	-0.1367226
204	0xbd6defa4	-0.058089867
205	0xbd526274	-0.051363423
206	0xbd1ef780	-0.038810253
207	0xbaeb8317	-0.0017968145
208	0xbe4684bc	-0.19386572
209	0x3d806265	0.06268767
210	0x3d826ce8	0.063684285
211	0xbdf7b91d	-0.120958544
212	0xbd8ecfe6	-0.06973247
213	0x3d003420	0.03129971
214	0x3c10bdf3	0.00883435
215	0xbe09ad42	-0.13444999
216	0x3c5e4d43	0.013568225
217	0x3dc383e7	0.09546643
218	0x3d99fe01	0.075191505
219	0x3d8b2447	0.06794029
220	0xbd59bd7f	-0.053159233
221	0x3e11c31a	0.14234582
222	0xbc74ce22	-0.014941724
223	0x3e0ac70f	0.13552497
224	0x3d74b2a3	0.059740674
225	0x3d2e975a	0.04262481
226	0x3d5e7139	0.054307196
227	0x3dc1782c	0.09446749
228	0xbd02d0d9	-0.031937454
229	0xbd22d091	-0.039749686
230	0x3d0c1d4a	0.03420762
231	0x3d92afe8	0.07162458
232	0x3d8cead8	0.068807304
233	0x3c902105	0.01759387
234	0xb9fbf84d	-0.0004805945
235	0xbcc388e4	-0.023868985
236	0xbd9e4fae	-0.077300414
237	0xbc9b665e	-0.01896971
238	0xbc020fd5	-0.007938345
239	0xbd188acf	-0.037241753
240	0x3c165b8f	0.009177103
241	0xbdc15ab4	-0.094411284
242	0xbc7ac983	-0.015306833
243	0xbd3e7129	-0.046494637
244	0xbd73f7f4	-0.05956264
245	0x3c070bb5	0.008242537
246	0x3c81ef88	0.015861288
247	0x3cd2d4e2	0.025736276
248	0x3dbfda3d	0.093677975
249	0x3ca8eb90	0.020620137
250	0xbcada715	-0.021197835
251	0x3e224bea	0.15849271
252	0x3dd360f4	0.10321227
253	0xbda98911	-0.082780965
254	0xbdf52e13	-0.119716786
255	0x3e0404fe	0.1289253

decompress.3.bias f4 [8]
0	0x3d391f5d	0.045195926
1	0xbe004cfd	-0.12529369
2	0xbdbe1644	-0.092815906
3	0x3dcdd111	0.10049642
4	0x3d11d1c2	0.03560043
5	0xbe527e21	-0.20555927
6	0x3dcda07f	0.10040378
7	0x3d5cefc5	0.0539396
