Project/Milestone_4/cnn.pth (torch, 6258 bytes, 12 tensors)

compress.0.weight f4 [3, 3, 3, 3]
00000000: 8375 a93d 407a 203d 3467 95bc a2e1 78bd
00000010: ac59 133e e44c 8e3d 45ad 8b3e 3f6a 003e
00000020: 3460 0dbd b17a 393e 7dad 993e acc2 2c3d
00000030: bd6a 8a3e c9b9 a33e f662 863d fab4 d23c
00000040: ed14 793e a878 ee3d eada 303e 36d8 943b
00000050: 0634 a6bc c695 8a3e 7b6c 043e 20ae 5f3e
00000060: 9de4 3a3e 58da 813e 0cb5 903e 1847 8d3e
00000070: b654 4c3e cd73 173d fb21 273e de18 193d
00000080: e8cd 8c3e 9541 023c 6d27 d33d 9e76 4c3c
00000090: 93e7 5c3e 5e3e f13c bce6 973e b187 a63e
000000a0: 2f3a ad3d 890d 9e3e 04ae 303d 4609 c23d
000000b0: 6292 8a3d d9c0 903e f451 093e ee7b 7e3d
000000c0: 9ced a33e 5c76 a13e e6e0 313e c510 803e
000000d0: af3e ef3c 69bc 933e d438 413c 5a8e 8a3d
000000e0: 8c73 443e d81d 603e 9619 543e c50b c53d
000000f0: cea1 f13d 3558 2d3e c85a 4f3e d311 1dbc
00000100: b13c 6e3e 5b1e 0fbd 7868 1c3e d241 9c3d
00000110: 7347 8f3e 3cfb 1c3e 79e6 babd 690d e13b
00000120: d170 d43d 74e0 5f3e af9b ed3b 36ba 653e
00000130: 2b47 6c3e d9ac 1c3d 4d60 acbd d826 5a3e
00000140: bade 4e3c
0.08274367 0.039179087 -0.018237688 -0.060762055 0.14389676 0.069482595 0.27280632 0.1254053
-0.034515575 0.1811321 0.30015174 0.04217784 0.2703456 0.3197768 0.06561844 0.025721062
0.24324389 0.11644107 0.17271009 0.004542376 -0.020288479 0.27067393 0.12932007 0.21843767
0.18251272 0.25361896 0.28263128 0.27593303 0.1995419 0.03697567 0.16321556 0.03737723
0.27500844 0.007950206 0.10310254 0.012479452 0.21572714 0.029448684 0.29668224 0.325254
0.08458363 0.30869702 0.043134704 0.09474425 0.067662016 0.2827213 0.13410169 0.062129907
0.3201722 0.31535614 0.17370948 0.25012794 0.029204695 0.28854683 0.011793334 0.06765433
0.19184703 0.21886384 0.20712885 0.096213855 0.1179844 0.1692818 0.20249474 -0.009586769
0.2326534 -0.03494106 0.15274227 0.07629742 0.279842 0.15330213 -0.091259904 0.0068680537
0.103730805 0.21862966 0.007251225 0.22434315 0.23074023 0.038250778 -0.084168054 0.2130388
0.012626344

compress.0.bias f4 [3]
00000000: bbad e1bd 4668 683d d63f 53be
-0.110194646 0.056740068 -0.2062982

compress.2.weight f4 [3, 3, 3, 3]
00000000: bdef 3f3e ff69 933c 2701 973a 63ed c0bd
00000010: 78ed d13d 1123 50bd 885b 843c cc1c 163e
00000020: 3f2c 883e b066 173e 0fb8 7a3e 906f 003e
00000030: 3ee2 493d 0048 863d ad7a 993c 7470 753e
00000040: e1a7 93bd 19e1 8dbb a9f2 893e a21e a23d
00000050: 2d3c b03d 8caf a93c b697 6a3e 0905 a23e
00000060: a831 103e 9c54 07bd cb35 54bc 065a dabd
00000070: 8620 233e 83ca d7bc ad7b 28be 0f2c b8bd
00000080: 6a58 8abd 6027 bbbc 77cc 9d3d b00a 4b3e
00000090: 9ce0 8d3e d19e 9fbd a0a9 313d 3990 533e
000000a0: c530 163e 7533 fabd 85c1 623e 2869 5bbd
000000b0: 39d5 16be 4fb8 f53c 5d40 9bbc 8bb7 dfbd
000000c0: 29cb 47be 43f0 eebd 0876 463d 17ff c9bd
000000d0: 487e 293d 7d54 f23d 9218 163e 0655 89bd
000000e0: 341f 373e 951c 233e 78e4 ac3e 07ff 4f3d
000000f0: 1c1f e83d 3a75 933d df44 943d d0b4 523e
00000100: 4887 163b 3cbb 54bb 3872 6b3e 572a 843e
00000110: 8c4d 20bb 50fe f4bc dfd2 16bc 91f7 b03d
00000120: 0dc9 893e 294e 703d 5337 8dbd c513 ca3d
00000130: 6df4 963d 46d2 5a3d e0fc 913e 9046 0d3e
00000140: 7d2d 173e
0.18743797 0.017994879 0.0011520729 -0.09420278 0.10250372 -0.050814692 0.016156927 0.14659423
0.26596257 0.14785266 0.24484275 0.12542558 0.049288027 0.06556702 0.018735254 0.23968679
-0.07209755 -0.0043298122 0.26942948 0.07915999 0.086052276 0.02071359 0.22909436 0.31644467
0.14081442 -0.033039674 -0.012952278 -0.10661702 0.15930375 -0.026341682 -0.16453429 -0.089927785
-0.06755145 -0.022845924 0.07705014 0.19828296 0.27710426 -0.07793964 0.043374658 0.20660485
0.14667042 -0.12216846 0.22144134 -0.05356708 -0.14729775 0.029995112 -0.01895159 -0.1092368
-0.19511093 -0.1166692 0.048452407 -0.09863108 0.041380197 0.11832521 0.1465781 -0.0670567
0.17882997 0.15928872 0.33768058 0.050780322 0.11334059 0.072000936 0.072396986 0.20576787
0.0022968818 -0.0032460233 0.2299279 0.25813553 -0.0024460284 -0.029906422 -0.009205549 0.086409695
0.26911202 0.05866829 -0.06895318 0.09867052 0.07370839 0.05342319 0.2851324 0.13796449
0.14763446

compress.2.bias f4 [3]
00000000: c2e8 5bbe fcd9 d63d 4969 a3bc
-0.21475509 0.10490796 -0.019947665

compress.4.weight f4 [3, 3, 3, 3]
00000000: 8178 8dbd b903 053e f964 51bd 3df3 f2bd
00000010: 656f 88bd ee52 5a3e eed2 c13c 1b1a 7a3e
00000020: 8533 2e3e 9fbd 1dbe a90f 84be 7aa2 89be
00000030: e421 90be 0a0a 98be 83d7 8b3d 5bd6 42be
00000040: f72e 85be 8929 073d cbfd 14be f480 b53d
00000050: e306 c73d 8633 95bc ef1d 883d 6a32 273e
00000060: 97f3 a9bd f945 6f3e a40b 9ebd ad3e b83d
00000070: bd47 653e 30d7 20bd 7b64 2dbe 1e9b d5bc
00000080: 1927 873d be17 20bd 2ab4 363b 9e4a 203e
00000090: 19bf 4ebd 9239 723d 652c 4d3c 020b cfbb
000000a0: eb02 013d 0d52 483d 81ed 8e3e 56ff a23d
000000b0: 3c0b e93d 5203 463d a3a3 713e 5342 77bd
000000c0: 7657 8fbc 0d28 0dbe a028 0e3e cbc3 08be
000000d0: 7711 2b3e ee42 d0bb 19aa 113d 555b 383c
000000e0: 2b12 a83c 0315 3fbd 7b62 ab3d e6a6 4b3e
000000f0: b6e1 863e 1189 8d3d c11c 343e d3fb adbd
00000100: 10f2 bebd f274 3fbe 476a dc3b f7cf b0be
00000110: 6ec0 13be 9569 13be 2b01 1dbe 084f 793d
00000120: 2cf5 18bd bbdc fbbd 0d7e 563e 6786 df3d
00000130: d3e9 843e 82e6 973d 2442 4bbd b425 0e3e
00000140: d7ef a03e
-0.0690775 0.12989701 -0.051121686 -0.118628 -0.06661872 0.21320698 0.02366015 0.24424021
0.1701184 -0.15404366 -0.25793198 -0.26881772 -0.28150856 -0.2969516 0.06828215 -0.19027083
-0.26012394 0.032998595 -0.1454994 0.088624865 0.097181104 -0.018213045 0.066463344 0.16327825
-0.08298414 0.23366536 -0.07717064 0.089963295 0.22390647 -0.03926772 -0.16932862 -0.026074942
0.06599254 -0.039085142 0.0027878382 0.15653464 -0.050475214 0.059136935 0.0125227915 -0.006318451
0.031496923 0.048906375 0.27915576 0.07958858 0.11379096 0.04834301 0.23597579 -0.060365986
-0.01749776 -0.1378481 0.13882685 -0.13355939 0.16705881 -0.006355635 0.03556261 0.011252244
0.020516476 -0.046650898 0.08368393 0.19887885 0.2634408 0.06910909 0.17589094 -0.08495297
-0.093235135 -0.18696955 0.0067265364 -0.34533665 -0.14428875 -0.14395745 -0.15332477 0.060866386
-0.03734319 -0.1229796 0.20946522 0.10914307 0.25959644 0.07417013 -0.049623623 0.1388157
0.31432983

compress.4.bias f4 [3]
00000000: e79a 56bd 68a6 4d3e c620 c6bc
-0.05239382 0.2008301 -0.02418555

decompress.0.weight f4 [3, 3, 3, 3]
00000000: dfe4 b43d 1662 02be c08c 4b3e 4133 b73d
00000010: 0eb7 03bb 9fd5 a33e 3c57 c53d a695 7d3d
00000020: bb69 6d3e e77a 10be 1f59 c9bd 2254 173e
00000030: c945 99bc a999 b73d 5014 823e 5b3e 08be
00000040: 234a 8d3e 9b65 823d cb5b ec3d 553f 7d3e
00000050: 221a 2b3e d05d 563e 9760 013e 9975 d53d
00000060: b059 2e3d a999 b13e f0d9 bc3d 708a 93bd
00000070: c415 2a3d 8b6b 45be a860 7bbe f3eb c13d
00000080: a228 503d 8334 57be 4129 28bd 1c2c a53d
00000090: 7932 9d3d 5d45 123e 5cc2 773c b05e 633b
000000a0: 434a c2bc 918a 41bd 8094 3bbe ad7b 0dbe
000000b0: 90a1 e4bd a949 30be 131c 0d3d 690e 51be
000000c0: eb19 3abe 34f2 413e 1503 0fbe 1219 0bbe
000000d0: f234 6bbc 909c ec3d 60bc 32be d629 043e
000000e0: e73d 8b3d 0eaf 9cbd 1162 edbd 3148 463e
000000f0: c757 ce3d 5b7f 1f3e 82cc 5a3e 47b0 e33d
00000100: fad8 3e3c 72ee 51bd cad1 de3a 74d5 a13e
00000110: 300a 5d3e f7b1 de3d 0d6a 273e e566 403e
00000120: 431f 39bd b26e d1bd 17c3 803d b235 aa3d
00000130: 7aaf 7c3e 99ba 603e 1e6a f33d dde1 123e
00000140: 290d 093e
0.08832716 -0.1273273 0.1987791 0.08945323 -0.0020098123 0.31998917 0.09635779 0.061910294
0.23184864 -0.14109384 -0.098314516 0.14778188 -0.018710034 0.08964855 0.25406122 -0.13305037
0.27595624 0.06367036 0.115409456 0.2473119 0.16709188 0.20934224 0.12634502 0.104228206
0.042566 0.34687546 0.09221256 -0.07204139 0.041524664 -0.19279306 -0.2454859 0.09468832
0.05082 -0.21016125 -0.041054968 0.08065054 0.076756425 0.14284272 0.0151220225 0.003469389
-0.023717051 -0.047251288 -0.18318367 -0.1381671 -0.11163628 -0.17215599 0.0344506 -0.20415653
-0.1817395 0.1894005 -0.1396602 -0.13583782 -0.014355885 0.115532994 -0.17454672 0.12906584
0.06798916 -0.076505765 -0.1159097 0.19363476 0.10075336 0.15575926 0.21367076 0.111176066
0.011648411 -0.05125279 0.0016999778 0.31608164 0.21585917 0.10873788 0.16349049 0.18789251
-0.04519583 -0.102261916 0.062872104 0.08311023 0.24676314 0.21946181 0.118854746 0.14343973
0.13383926

decompress.0.bias f4 [3]
00000000: 43a1 d9bd 3276 5ebe 06de 16bc
-0.10626461 -0.21724775 -0.009208208

decompress.2.weight f4 [3, 3, 3, 3]
00000000: 5696 1bbd e3d8 293d 5828 da3d c3f2 f9bd
00000010: db2f 123e e575 e2bd f399 273e 3077 8d3d
00000020: a50d 443d 924d 0c3e 949b 7c3d 3fe1 bf3d
00000030: 60e6 693e 6854 5a3e ba51 263e c393 dc3d
00000040: f3a8 6f3e 9e49 743e 4e2c 1ebe b1d8 8f3b
00000050: 064f ad3d 19e6 34be 5158 b43d d592 0a3e
00000060: d834 c8bc 23dd 3f3d 5f89 ab3d 71bb cfbd
00000070: 55c8 bebc e339 293c c4cc cfbd 7055 213e
00000080: 8728 233e 25d8 26bd 531f e93c aeee 06be
00000090: 9572 213e c073 d03d dc2e d5bb 0980 9f3e
000000a0: f13c 9c3e 0505 113e fa8a be3d 9a9a a53d
000000b0: 5056 163d 0f5d 47be 3a38 a73d d043 fa3c
000000c0: e150 93bd 4695 4b3e e1bd 8b3e e823 e7bd
000000d0: 119c b23c bcf5 e6bc d131 c6bc fe85 0d3e
000000e0: 77dc 1a3c 466b 20be d325 583e 8bbc 1fbe
000000f0: 2fc4 293e 3af7 953d 7cd3 df3d a34e 073c
00000100: 235b 9ebd 1d3f e13c a657 a03d eab3 ac3d
00000110: a690 6e3e 6939 983d 6809 8d3e db1a 513e
00000120: 2813 8f3d df53 923d a960 f43d de78 f4bd
00000130: e2c1 343e 9bcc d83c 2e3b 83be 1cde 663e
00000140: 6301 893d
-0.03798517 0.041466605 0.10652226 -0.12204506 0.14276068 -0.11057643 0.1636732 0.06907499
0.047864575 0.13701466 0.06167181 0.09369134 0.22841787 0.21321261 0.16242114 0.10770371
0.23404293 0.23856208 -0.15446588 0.0043898453 0.08462338 -0.176659 0.088059075 0.13532574
-0.02443926 0.04684175 0.08375811 -0.101431735 -0.023288885 0.010328743 -0.10146478 0.15755248
0.15933429 -0.040733475 0.02845732 -0.13176987 0.15766366 0.101783276 -0.00650583 0.3115237
0.30515245 0.14162071 0.093038514 0.080861285 0.036703408 -0.19469093 0.08165021 0.030549914
-0.07193161 0.19881162 0.27293304 -0.112861454 0.021802934 -0.028193347 -0.024193676 0.13820645
0.009451977 -0.15665922 0.21108179 -0.15599267 0.16578744 0.07322545 0.10929009 0.008258495
-0.07732227 0.027495915 0.078292176 0.084327534 0.23297366 0.07432825 0.2754624 0.20420401
0.06986076 0.071449034 0.11932499 -0.11937116 0.17652085 0.026464751 -0.25631088 0.22545666
0.066897176

decompress.2.bias f4 [3]
00000000: b600 2bbd 7f27 9a3a 57e1 d7bd
-0.041748725 0.0011761038 -0.10541027

decompress.4.weight f4 [3, 3, 3, 3]
00000000: 7d80 c93d e5a4 3c3e fc5d 4cbd cfd5 623e
00000010: 38e0 703d e94e 4f3e 3160 1c3e 762b 2c3e
00000020: 9ffb 7a3d d9cb 263c 4e9c 053e 9e3e 6cbc
00000030: ce8d 14bb b181 8b3d 7a9c 02bd c749 0f3e
00000040: c151 df3d 48a5 c93d 53ab 97bc 4702 29bc
00000050: 0ad1 cfbd 2d2e b63d c4be 2c3e 5ddd fb3d
00000060: 5148 ac3d fcfe fe3c 0265 2cbd 56b9 073e
00000070: 01ca 2b3e ebe6 9e3d 8827 573d af01 4b3e
00000080: c05e a03d c6d6 8abd 12ac 423c 2ca4 2e3d
00000090: 22e6 b43d 6664 1b3e 2a24 113e 9bcd 383e
000000a0: 6070 623e c7b4 8a3d 7dcb a53c fd71 683d
000000b0: b30c e5bc b204 113e 42b1 af3d 6ada 3c3d
000000c0: bd75 ce3d a4e6 563e a38b 0d3e 1aeb b63d
000000d0: 3acc 0d3e 3804 8bbd 5d89 d0bc c1cd ba3b
000000e0: 2d5e a03d 1958 d83b dd59 523e ccb7 623d
000000f0: 2ad3 87bd 0b74 2dbd 4358 8a3d 171b 523d
00000100: 9145 9d3d 3812 c83c 229f 2a3e 7606 533e
00000110: 1fb8 6e3d b203 84bd 6ab2 c2bb 08de a23c
00000120: 3809 d93d b3dc 7c3d 0ec8 073e d1f2 c5bc
00000130: 4664 f63d 35b8 33bb 6d01 333e 6a77 393e
00000140: 4945 fa3b
0.0983896 0.18422277 -0.049894318 0.22151874 0.05880758 0.20244946 0.15271069 0.16813454
0.06127512 0.010180437 0.13047907 -0.014419226 -0.002266753 0.06811846 -0.03188751 0.13992988
0.10904265 0.09845978 -0.018514311 -0.010315484 -0.10147293 0.08895526 0.16869646 0.12298081
0.08412231 0.031127445 -0.042088516 0.13254294 0.16776277 0.07758888 0.052527934 0.19824861
0.07830572 -0.06779246 0.011881845 0.042637035 0.08832957 0.15175018 0.14173952 0.18047182
0.2211318 0.06772762 0.020238632 0.056749333 -0.027960157 0.14161947 0.08578731 0.046106733
0.100810505 0.2098642 0.13822798 0.08931561 0.13847438 -0.06787914 -0.025456125 0.0057007973
0.078304626 0.006602299 0.20542093 0.055351064 -0.06632073 -0.042346995 0.06755116 0.051295366
0.07679284 0.02442275 0.16662267 0.20607933 0.05828106 -0.06446017 -0.005941679 0.019881263
0.105974615 0.061733913 0.13259909 -0.024163635 0.120308444 -0.0027423028 0.17481013 0.18111959
0.007637654

decompress.4.bias f4 [3]
00000000: 11c8 173e f929 be3d 1ffe da3d
0.14822413 0.092853494 0.10693001
